…
ernel_size=(3,3), activation=&#39;relu&#39;, input_shape=image_shape)) model.add(MaxPool2D(pool_size=(2,2))) model.add(Flatten()) model.add(Dense(128, activation=&#39;relu&#39;)) model.add(Dropout(0.5)) model.add(Dense(1, activation=&#39;sigmoid&#39;)) model.compile(loss = &#39;binary_crossentropy&#39;, optimizer = &#39;adam&#39;, metrics = [&#39;accuracy&#39;]) . model.summary() . Model: &#34;sequential_8&#34; _________________________________________________________________ Layer (type) Output Shape Param # ================================================================= conv2d_18 (Conv2D) (None, 128, 128, 32) 896 _________________________________________________________________ max_pooling2d_6 (MaxPooling2 (None, 64, 64, 32) 0 _________________________________________________________________ conv2d_19 (Conv2D) (None, 62, 62, 32) 9248 _________________________________________________________________ max_pooling2d_7 (MaxPooling2 (None, 31, 31, 32) 0 _________________________________________________________________ conv2d_20 (Conv2D) (None, 29, 29, 32) 9248 _________________________________________________________________ max_pooling2d_8 (MaxPooling2 (None, 14, 14, 32) 0 _________________________________________________________________ flatten_5 (Flatten) (None, 6272) 0 _________________________________________________________________ dense_10 (Dense) (None, 128) 802944 _________________________________________________________________ dropout_5 (Dropout) (None, 128) 0 _________________________________________________________________ dense_11 (Dense) (None, 1) 129 ================================================================= Total params: 822,465 Trainable params: 822,465 Non-trainable params: 0 _________________________________________________________________ . image_shape . (130, 130, 3) . Early Stopping . from tensorflow.keras.callbacks import EarlyStopping . early_stop = EarlyStopping(monitor=&#39;val_loss&#39;, patience=2) . Train Model . batch_si
…
2,2)) model.add(Conv2D(filters=32, kernel_size=(4,4), activation=&#39;relu&#39;, input_shape=(32,32,3))) model.add(MaxPool2D(2,2)) model.add(Flatten()) model.add(Dense(256, activation=&#39;relu&#39;)) model.add(Dense(10, activation=&#39;softmax&#39;)) model.compile(loss=&#39;categorical_crossentropy&#39;, optimizer=&#39;rmsprop&#39;, metrics=[&#39;accuracy&#39;]) . model.summary() . Model: &#34;sequential_2&#34; _________________________________________________________________ Layer (type) Output Shape Param # ================================================================= conv2d_4 (Conv2D) (None, 29, 29, 32) 1568 _________________________________________________________________ max_pooling2d_4 (MaxPooling2 (None, 14, 14, 32) 0 _________________________________________________________________ conv2d_5 (Conv2D) (None, 11, 11, 32) 16416 _________________________________________________________________ max_pooling2d_5 (MaxPooling2 (None, 5, 5, 32) 0 _________________________________________________________________ flatten_2 (Flatten) (None, 800) 0 _________________________________________________________________ dense_4 (Dense) (None, 256) 205056 _________________________________________________________________ dense_5 (Dense) (None, 10) 2570 ================================================================= Total params: 225,610 Trainable params: 225,610 Non-trainable params: 0 _________________________________________________________________ . from tensorflow.keras.callbacks import EarlyStopping . early_stop = EarlyStopping(monitor=&#39;val_loss&#39;, patience=4) . model.fit(X_train, y_train, epochs=20, batch_size=516, validation_dat
…
() model.add(Conv2D(filters=16, kernel_size=(4,4), activation=&#39;relu&#39;,input_shape=(28,28,1))) model.add(MaxPool2D(pool_size=(2,2))) model.add(Flatten()) model.add(Dense(20, activation=&#39;relu&#39;)) model.add(Dense(10, activation=&#39;softmax&#39;)) model.compile(loss=&#39;categorical_crossentropy&#39;, optimizer=&#39;adam&#39;, metrics=[&#39;accuracy&#39;]) . model.summary() . Model: &#34;sequential&#34; _________________________________________________________________ Layer (type) Output Shape Param # ================================================================= conv2d (Conv2D) (None, 25, 25, 16) 272 _________________________________________________________________ max_pooling2d (MaxPooling2D) (None, 12, 12, 16) 0 _________________________________________________________________ flatten (Flatten) (None, 2304) 0 _________________________________________________________________ dense (Dense) (None, 20) 46100 _________________________________________________________________ dense_1 (Dense) (None, 10) 210 ================================================================= Total params: 46,582 Trainable params: 46,582 Non-trainable params: 0 _________________________________________________________________ . from tensorflow.keras.callbacks import EarlyStopping . early_stop = EarlyStopping(monitor = &#39;val_loss&#39;, patience=2) . Save and Load data and model . from numpy import save from numpy impo
…
l.add(Conv2D(filters=32, kernel_size=(4,4), activation=&#39;relu&#39;, input_shape=(28,28,1))) model.add(MaxPool2D(pool_size=(2,2))) model.add(Flatten()) model.add(Dense(128, activation=&#39;relu&#39;)) model.add(Dense(10, activation=&#39;softmax&#39;)) model.compile(loss=&#39;categorical_crossentropy&#39;, optimizer= &#39;adam&#39;, metrics=[&#39;accuracy&#39;]) . model.summary() . Model: &#34;sequential_8&#34; _________________________________________________________________ Layer (type) Output Shape Param # ================================================================= conv2d_6 (Conv2D) (None, 25, 25, 32) 544 _________________________________________________________________ max_pooling2d_4 (MaxPooling2 (None, 12, 12, 32) 0 _________________________________________________________________ flatten_4 (Flatten) (None, 4608) 0 _________________________________________________________________ dense_8 (Dense) (None, 128) 589952 _________________________________________________________________ dense_9 (Dense) (None, 10) 1290 ================================================================= Total params: 591,786 Trainable params: 591,786 Non-trainable params: 0 _________________________________________________________________ . # Early Stopping from tensorflow.keras.callbacks import EarlyStopping . early_stop = EarlyStopping(monitor=&#39;val_loss&#39;, patience=3) . model.fit(X_train, y_train, epochs=30, batch_size=12
…
